model-artifact/layer.pth (torch, 35276 bytes, 2 tensors)

weight f4 [128, 64]
0.103371486 -0.022970244 0.116304845 0.090325266 -0.08716498 0.0713598 0.032137617 0.098356694
-0.09480889 0.09729317 0.017737359 0.06110491 -0.0693945 0.08231275 -0.008989051 0.103078425
0.010670409 0.0775944 -0.07898989 -0.11078091 0.043413952 0.06621732 0.034596637 0.039271504
0.08233556 -0.06431538 0.066905156 0.059922636 -0.05305755 -0.07435842 -0.12413527 0.09192385
-0.0019271076 0.028582439 -0.08846906 -0.09398246 0.102579236 0.08806962 0.06760168 0.09995891
0.10066098 0.07383667 0.09029019 -0.016057879 0.032556757 -0.107436866 -0.044804007 -0.011678621
-0.0060942024 0.12328318 0.1019918 0.039361894 0.116557285 -0.06372744 0.024303332 -0.099154815
-0.10633069 0.06683175 0.0401344 -0.0067278743 -0.08088003 0.09011106 -0.009589419 0.08533721
-0.08636339 0.096063 -0.005904138 -0.039061964 -0.010318816 -0.09640892 -0.022855595 0.0073241144
-0.09254691 0.067502916 0.11808263 0.064446285 -0.06140326 -0.07767986 -0.09906328 -0.077060044
0.074613184 0.057611123 -0.046750903 0.002047494 -0.019689575 0.0018056184 -0.12430504 0.10563666
-0.04386981 -0.10767746 -0.0022614747 0.037363365 0.057247713 -0.06313726 -0.009128302 -0.093632475
-0.09423211 -0.08252546 -0.07851121 0.07849631 -0.1127523 -0.025949568 -0.05182527 0.082209006
-0.008077443 -0.06878959 0.101503626 -0.0947828 -0.04733096 -0.11405571 -0.009981781 0.03558162
0.10922703 -0.09062827 -0.083427995 0.124916926 0.021995232 -0.08470824 0.0538992 0.12040405
0.0046001375 -0.057320237 -0.06682782 -0.044963494 0.06372176 -0.08846271 0.113698676 -0.07734817
0.035050824 0.124349415 -0.055262297 -0.08356589 -0.064799085 -0.05241932 -0.07675965 -0.123170555
-0.06424184 -0.04345645 0.10829696 -0.021332055 0.014565423 -0.039226577 0.019484594 0.059548438
0.021841243 -0.015384853 0.010526359 0.11795296 -0.083256945 0.12263006 -0.027763397 0.08913045
0.096810445 0.004348144 0.002814442 0.08664727 -0.017366633 0.034398377 0.11959922 -0.024746522
-0.044027656 0.09693597 0.11230342 0.11986798 -0.11793956 0.08231281 0.061527103 -0.079762086
0.081640065 -0.06713247 0.06611678 0.010686621 0.03940651 -0.07684891 -0.024168327 -0.06795396
0.06800565 -0.099297985 0.00875251 0.048291028 -0.002908513 -0.037608877 0.02851358 0.00987415
-0.06891143 -0.03394209 -0.02733995 -0.07044864 0.0030938834 -0.038831726 -0.07066624 -0.10127422
-0.081508964 -0.027213454 0.09997827 -0.014707148 -0.06711666 -0.09532842 0.021314025 0.10628879
-0.112645164 0.09639011 0.11165559 0.028280482 0.062361524 0.03711818 -0.109281465 -0.049859464
-0.029263198 -0.07454105 -0.0039296 0.026372358 0.0042749196 0.06819022 -0.07366426 0.10514569
-0.05083637 0.1002284 0.113383606 -0.10212061 -0.11978817 0.09276146 0.09515838 -0.013382465
0.0259213 0.01842773 -0.03816679 0.06577231 0.042176753 -0.12058662 -0.034482524 -0.07424019
0.053658143 -0.12480721 -0.1074253 -0.11018528 -0.042934865 -0.09639874 -0.024916545 -0.07113287
0.080360666 0.10967368 0.04835576 -0.048500672 0.051000386 -0.107332855 -0.06252082 -0.026204348
-0.1168714 0.11721656 0.081910536 0.057907417 0.058748886 0.123010084 -0.04752828 0.029984653
00000000: 6eb4 d33d 182c bcbc 3c31 ee3d 74fc b83d
00000010: 8e83 b2bd 1625 923d bca2 033d 3c6f c93d
00000020: 2a2b c2bd a441 c73d f04d 913c 2449 7a3d
00000030: b41e 8ebd 9693 a83d d046 13bc c81a d33d
00000040: f0d2 2e3c d0e9 9e3d 74c5 a1bd 1ae1 e2bd
00000050: d4d2 313d f29c 873d 34b5 0d3d 28db 203d
00000060: 8c9f a83d c8b7 83bd 9205 893d 7071 753d
00000070: e052 59bd 3a49 98bd a23a febd 9242 bc3d
00000080: 0097 fcba b825 ea3c 442f b5bd e079 c0bd
00000090: 1015 d23d d85d b43d c072 8a3d 42b7 cc3d
000000a0: 5827 ce3d ae37 973d 10ea b83d d08b 83bc
000000b0: 3c5a 053d dc07 dcbd 6884 37bd b057 3fbc
000000c0: e0b1 c7bb e47b fc3d 14e1 d03d f039 213d
000000d0: 96b5 ee3d 8883 82bd c817 c73c ae11 cbbd
000000e0: e8c3 d9bd 16df 883d f863 243d 8075 dcbb
000000f0: 6ea4 a5bd 268c b83d f01c 1dbc 46c5 ae3d
00000100: 4adf b0bd aebc c43d 8077 c1bb 70ff 1fbd
00000110: 4010 29bc 0a72 c5bd a83b bbbc 20ff ef3b
00000120: 3c89 bdbd f83e 8a3d 4ed5 f13d 6afc 833d
00000130: fc81 7bbd 9e16 9fbd b0e1 cabd a8d1 9dbd
00000140: ccce 983d a4f9 6b3d e07d 3fbd 402f 063b
00000150: 084c a1bc 80aa ec3a a493 febd 0858 d83d
00000160: d4b0 33bd 0086 dcbd 4035 14bb 540a 193d
00000170: 947c 6a3d 1c4e 81bd e08e 15bc 62c2 bfbd
00000180: c4fc c0bd 1c03 a9bd 7cca a0bd acc2 a03d
00000190: aeea e6bd 3094 d4bc bc46 54bd 325d a83d
000001a0: 4057 04bc 8ee1 8cbd 22e1 cf3d 7c1d c2bd
000001b0: 1cde 41bd 0a96 e9bd a08a 23bc 08be 113d
000001c0: 6cb2 df3d 509b b9bd 4cdc aabd 72d4 ff3d
000001d0: 582f b43c 847b adbd 68c5 5c3d 6696 f63d
000001e0: c0bc 963b a0c8 6abd 06dd 88bd a42b 38bd
000001f0: 8e80 823d f02b b5bd dada e83d b868 9ebd
00000200: 7491 0f3d e8aa fe3d b85a 62bd 9824 abbd
00000210: 62b5 84bd a4b5 56bd 2a34 9dbd d840 fcbd
00000220: 3a91 83bd 64ff 31bd ccca dd3d 90c0 aebc
00000230: d0a3 6e3c 0cac 20bd 289e 9f3c 10e9 733d
00000240: 68ec b23c c010 7cbc c076 2c3c 5291 f13d
00000250: 9e82 aabd 7825 fb3d 1070 e3bc 068a b63d
00000260: 8e44 c63d e07a 8e3b 8072 383b 2074 b13d
00000270: 7844 8ebc 50e5 0c3d 70f0 f43d 38b9 cabc
00000280: 5856 34bd 5e86 c63d 56ff e53d 587d f53d
00000290: 4c8a f1bd 9e93 a83d d803 7c3d 4e5a a3bd
000002a0: e832 a73d c07c 89bd 3c68 873d f016 2f3c
000002b0: b868 213d f662 9dbd a8fc c5bc 722b 8bbd
000002c0: 8c46 8b3d be5c cbbd b066 0f3c d0cc 453d
000002d0: c09c 3ebb c40b 1abd 5095 e93c 30c7 213c
000002e0: 7021 8dbd dc06 0bbd 08f8 dfbc 6047 90bd
000002f0: c0c2 4a3b 040e 1fbd 76b9 90bd dc68 cfbd
00000300: 2cee a6bd c0ee debc 68c1 cc3d 40f6 70bc
00000310: 7674 89bd 8c3b c3bd c09a ae3c f0ad d93d
00000320: 82b2 e6bd 2e68 c53d b0ab e43d 78ac e73c
00000330: cc6e 7f3d 3c09 183d f6ce dfbd 7039 4cbd
00000340: 60b9 efbc faa8 98bd e0c3 80bb d80a d83c
00000350: a014 8c3b 50a7 8b3d 4add 96bd a056 d73d
00000360: cc39 50bd 8c44 cd3d aa35 e83d 9c24 d1bd
00000370: 8053 f5bd b8f9 bd3d 66e2 c23d 2042 5bbc
00000380: e858 d43c c0f5 963c c854 1cbd a2b3 863d
00000390: 88c1 2c3d 1ef6 f6bd 8c3d 0dbd 3e0b 98bd
000003a0: a4c8 5b3d ec9a ffbd cc01 dcbd d2a8 e1bd
000003b0: 78dc 2fbd b46c c5bd c81d ccbc 1cae 91bd
000003c0: 2294 a43d 989c e03d b010 463d a4a8 46bd
000003d0: c8e5 503d 54d1 dbbd ea0a 80bd 80aa d6bc
000003e0: 465a efbd 3c0f f03d b6c0 a73d 5430 6d3d
000003f0: aca2 703d b6ec fb3d 04ad 42bd 60a2 f53c

bias f4 [128]
0.03900078 0.052916124 -0.112254634 -0.051191196 -0.07633054 -0.07923128 0.060102567 0.004771605
-0.036022708 0.0036365092 -0.03591001 0.0033629388 -0.1061631 0.019254968 0.08864018 0.105701566
0.08108054 -0.04260643 -0.10520914 0.10409881 0.032332763 0.064008236 0.12376559 0.04279673
-0.10555297 0.08514878 -0.05810584 -0.039532274 0.08421737 -0.008411348 0.007963121 0.018675357
0.055226624 -0.027062371 0.10222411 -0.044236436 -0.022722974 -0.009658933 -0.06558278 -0.04071866
-0.03391747 -0.05256863 0.11499646 -0.005436823 0.12214422 0.11964065 0.030545458 0.06732914
-0.09648076 0.00046016276 0.121368065 -0.016752362 -0.07666214 -0.00094011426 -0.04310219 -0.0796213
0.0657457 0.035885677 0.035286665 -0.11543901 -0.009565353 0.110043526 0.010506079 0.118260905
-0.029958442 0.014868483 0.06673919 0.0033426285 0.07060565 0.11222151 0.08089319 0.052197218
0.08633268 0.10124315 -0.11353381 0.09007895 0.08378133 0.06306742 -0.07746607 0.096008465
0.032932013 0.048612222 -0.124274015 0.11283022 -0.101343185 0.05326481 0.122005954 0.06982492
-0.02584368 -0.021084547 -0.07926127 -0.06690803 -0.056448936 0.071629435 0.07801415 -0.031128153
0.041702792 0.02135393 -0.03552635 0.08482197 -0.08711645 0.02509369 0.029473364 -0.004754752
0.023637444 0.08059749 0.046242774 -0.016446307 0.04037492 0.054372102 -0.04817322 -0.08887179
0.06855063 -0.011457488 0.08569428 0.022900745 0.013230577 0.052383184 0.09701231 -0.04086329
0.056538254 -0.02328442 0.055186972 -0.11487436 0.107361555 0.0694678 0.09169954 0.10132879
00000000: 48bf 1f3d 94be 583d c2e5 e5bd dcad 51bd
00000010: 3053 9cbd 0244 a2bd 1c2e 763d 205b 9c3b
00000020: 8c8c 13bd 8052 6e3b 6016 13bd c064 5c3b
00000030: 0a6c d9bd 98bc 9d3c fc88 b53d 107a d83d
00000040: 8e0d a63d 1484 2ebd e477 d7bd c231 d53d
00000050: 5c6f 043d c016 833d d078 fd3d a04b 2f3d
00000060: 282c d8bd 7c62 ae3d 6400 6ebd 98ec 21bd
00000070: 287a ac3d c0cf 09bc c077 023c 10fd 983c
00000080: 5035 623d e8b1 ddbc e05a d13d 4431 35bd
00000090: 8825 babc 8040 1ebc 4450 86bd 9cc8 26bd
000000a0: 0ced 0abd 3452 57bd 4483 eb3d 6027 b2bb
000000b0: c026 fa3d 2806 f53d 783a fa3c dce3 893d
000000c0: b497 c5bd 0042 f139 d28f f83d 403c 89bc
000000d0: 0a01 9dbd 0072 76ba ec8b 30bd 7e10 a3bd
000000e0: aea5 863d dcfc 123d c088 103d 4a6b ecbd
000000f0: 00b8 1cbc 805e e13d b021 2c3c c632 f23d
00000100: 686b f5bc f09a 733c 8eae 883d 0010 5b3b
00000110: b299 903d 64d4 e53d 54ab a53d c0cc 553d
00000120: 30cf b03d 9258 cf3d 6a84 e8bd 507b b83d
00000130: 8c95 ab3d 7e29 813d 88a6 9ebd 16a0 c43d
00000140: b8e3 063d 9c1d 473d 6083 febd 8813 e73d
00000150: 048d cfbd 342c 5a3d 42de f93d 5e00 8f3d
00000160: 20b6 d3bc 80b9 acbc bc53 a2bd 1407 89bd
00000170: 0037 67bd 74b2 923d e2c5 9f3d 7800 ffbc
00000180: 8cd0 2a3d 70ee ae3c 1484 11bd 24b7 ad3d
00000190: 1c6a b2bd 4891 cd3c 2072 f13c c0cd 9bbb
000001a0: 50a3 c13c 4c10 a53d 1069 3d3d 68ba 86bc
000001b0: 2c60 253d 48b5 5e3d 4851 45bd 6a02 b6bd
000001c0: 4664 8c3d 30b8 3bbc 7c80 af3d 589a bb3c
000001d0: 10c5 583c c08f 563d 64ae c63d 4460 27bd
000001e0: a894 673d f8be bebc bc0b 623d 4043 ebbd
000001f0: 60e0 db3d 2245 8e3d f8cc bb3d 7885 cf3d
